…
icitly. It i
data which will execute arbitrary code during unpickling (See https://RITY.md#untrusted-models for more details). In a future release, the dlipped to `True`. This limits the functions that could be executed dur longer be allowed to be loaded via this mode unless they are explicitialization.add_safe_globals`. We recommend you start setting `weights_'t have full control of the loaded file. Please open an issue on GitHuntal feature.
  pairs = torch.load(join(self.data_dir, "{}.pkl".format(self.split)))
Construct model
Model Settings:
Im2LatexModel(
  (cnn_encoder): Sequential(
    (0): Conv2d(3, 64, kernel_size=(3, 3), stride=(1, 1), padding=(1, 
    (1): BatchNorm2d(64, eps=1e-05, momentum=0.1, affine=True, track_r
    (2): LeakyReLU(negative_slope=0.01)
    (3): MaxPool2d(kernel_size=2, stride=2, padding=1, dilation=1, cei
    (4): Conv2d(64, 128, kernel_size=(3, 3), stride=(1, 1), padding=(1
    (5): BatchNorm2d(128, eps=1e-05, momentum=0.1, affine=True, track_
    (6): LeakyReLU(negative_slope=0.01)
    (7): MaxPool2d(kernel_size=2, stride=2, padding=1, dilation=1, cei
    (8): Conv2d(128, 256, kernel_size=(3, 3), stride=(1, 1), padding=(
    (9): BatchNorm2d(256, eps=1e-05, momentum=0.1, affine=True, track_
    (10): LeakyReLU(negative_slope=0.01)
    (11): Conv2d(256, 256, kernel_size=(3, 3), stride=(1, 1), padding=
    (12): BatchNorm2d(256, eps=1e-05, momentum=0.1, affine=True, track
    (13): LeakyReLU(negative_slope=0.01)
    (14): MaxPool2d(kernel_size=(2, 1), stride=(2, 1), padding=0, dila
    (15): Conv2d(256, 512, kernel_size=(3, 3), stride=(1, 1))
    (16): LeakyReLU(negative_slope=0.01)
  )
  (rnn_decoder): LSTMCell(592, 512)
  (embedding): Embedding(429, 80)
  (init_wh): Linear(in_features=512, out_features=512, bias=True)
  (init_wc): Linear(in_features=512, out_features=512, bias=True)
  (init_wo): Linear(in_features=512, out_features=512, bias=True)
  (W_1): Linear(in_features=512, out_features=512, bias=False)
  (W_2): Linear(in_features=512, out_features=512, bias=False)
  (W_3): Linear(in_features=1024, out_features=512, bias=False)
  (W_out): Linear(in_features=512, out_features=429, bias=False)
  (dropout): Dropout(p=0.0, inplace=False)
)
C:\Users\user\AppData\Local\Programs\Python\Python312\Lib\site-packagening: The verbose parameter is deprecated. Please use get_last_lr() to
  warnings.warn(
Epoch 25, step:100/2395 4.18%, Loss:0.0303, Perplexity:1.0212
Epoch 25, step:200/2395 8.35%, Loss:0.0327, Perplexity:1.0229
Epoch 25, step:300/2395 12.53%, Loss:0.0314, Perplexity:1.0220
…
