…
e default value for `weights_only` will be flipped to `True`. This limits the functione executed during unpickling. Arbitrary objects will no longer be allowed to be loaded via this mode unless thely allowlisted by the user via `torch.serialization.add_safe_globals`. We recommend you start setting `weights_ any use case where you don't have full control of the loaded file. Please open an issue on GitHub for any issu
this experimental feature.
  pairs = torch.load(join(self.data_dir, "{}.pkl".format(self.split)))
Construct model
Model Settings:
Im2LatexModel(
  (cnn_encoder): Sequential(
    (0): Conv2d(3, 64, kernel_size=(3, 3), stride=(1, 1), padding=(1, 1))
    (1): BatchNorm2d(64, eps=1e-05, momentum=0.1, affine=True, track_running_stats=True)      
    (2): LeakyReLU(negative_slope=0.01)
    (3): MaxPool2d(kernel_size=2, stride=2, padding=1, dilation=1, ceil_mode=False)
    (4): Conv2d(64, 128, kernel_size=(3, 3), stride=(1, 1), padding=(1, 1))
    (5): BatchNorm2d(128, eps=1e-05, momentum=0.1, affine=True, track_running_stats=True)     
    (6): LeakyReLU(negative_slope=0.01)
    (7): MaxPool2d(kernel_size=2, stride=2, padding=1, dilation=1, ceil_mode=False)
    (8): Conv2d(128, 256, kernel_size=(3, 3), stride=(1, 1), padding=(1, 1))
    (9): BatchNorm2d(256, eps=1e-05, momentum=0.1, affine=True, track_running_stats=True)     
    (10): LeakyReLU(negative_slope=0.01)
    (11): Conv2d(256, 256, kernel_size=(3, 3), stride=(1, 1), padding=(1, 1))
    (12): BatchNorm2d(256, eps=1e-05, momentum=0.1, affine=True, track_running_stats=True)
    (13): LeakyReLU(negative_slope=0.01)
    (14): MaxPool2d(kernel_size=(2, 1), stride=(2, 1), padding=0, dilation=1, ceil_mode=False)
    (15): Conv2d(256, 512, kernel_size=(3, 3), stride=(1, 1))
    (16): LeakyReLU(negative_slope=0.01)
  )
  (rnn_decoder): LSTMCell(592, 512)
  (embedding): Embedding(429, 80)
  (init_wh): Linear(in_features=512, out_features=512, bias=True)
  (init_wo): Linear(in_features=512, out_features=512, bias=True)
  (W_1): Linear(in_features=512, out_features=512, bias=False)
  (W_2): Linear(in_features=512, out_features=512, bias=False)
  (W_3): Linear(in_features=1024, out_features=512, bias=False)
  (W_out): Linear(in_features=512, out_features=429, bias=False)
  (dropout): Dropout(p=0.0, inplace=False)
)
C:\Users\user\AppData\Local\Programs\Python\Python312\Lib\site-packages\torch\optim\lr_scheduler.py:62: UserWarning: The verbose parameter is deprecated. Please use get_last_lr() to access the learning rate.
  warnings.warn(
Epoch 1, step:100/2395 4.18%, Loss:3.5406, Perplexity:11.6365
Epoch 1, step:200/2395 8.35%, Loss:2.8720, Perplexity:7.3206
…
